models/qc_light.onnx (onnx, 23816 bytes, 5 tensors)

features.0.bias f4 [16]
0.1088798 -0.17964327 0.072909385 0.09517945 0.15100794 0.19428734 -0.126608 -0.12537067
-0.061355677 0.0033884873 0.12222359 -0.06270114 0.12998159 -0.09628431 0.070317276 0.09643733
00000000: 5ffc de3d 68f4 37be 8451 953d 72ed c23d
00000010: d3a1 1a3e 43f3 463e 87a5 01be 2b61 00be
00000020: 1750 7bbd 6211 5e3b 5d50 fa3d 7569 80bd
00000030: e519 053e b530 c5bd 8102 903d ef80 c53d

features.3.bias f4 [32]
-0.052836277 -0.027898762 0.05636142 0.026016356 0.05918259 -0.046468623 -0.01661656 0.085811205
-0.08205962 -0.029239377 -0.016086679 0.06931706 0.026038693 -0.086518094 0.03726864 -0.04047266
-0.13579762 -0.04526743 -0.0020607982 -0.07608703 -0.06540903 0.031317268 -0.03356293 0.013152846
0.010476742 -0.016726702 0.014912773 -0.048935745 0.03008186 0.056630276 0.00705324 -0.05178257
00000000: da6a 58bd f28b e4bc 3bdb 663d 4120 d53c
00000010: 7269 723d e255 3ebd 741f 88bc c9bd af3d
00000020: e00e a8bd 6b87 efbc 36c8 83bc 1af6 8d3d
00000030: 194f d53c 6630 b1bd 00a7 183d a9c6 25bd
00000040: 880e 0bbe 576a 39bd 750e 07bb 84d3 9bbd
00000050: 2bf5 85bd 8946 003d 4879 09bd 097f 573c
00000060: a4a6 2b3c 7006 89bc b454 743c d970 48bd
00000070: 3c6e f63c 26f5 673d de1e e73b f619 54bd

features.6.bias f4 [64]
0.0057472326 0.052508652 -0.030292409 0.0026395312 0.009743581 0.0056130285 0.047011107 -0.021800078
0.044100333 -0.04724859 0.031893607 -0.018319309 -0.05716051 0.019569626 -0.008437041 -0.07201645
-0.04054669 -0.053209707 0.05181306 -0.062108073 0.041448545 -0.007181605 0.04012354 0.015094496
-0.024505896 -0.032233983 -0.040212993 -0.024660906 -0.014682914 -0.041480977 -0.047489036 0.027119417
0.04960871 -0.02676218 -0.0057832366 -0.0064284997 0.013381658 -0.06314521 0.022326777 0.015677366
-0.0012257011 0.05282751 -0.020536667 0.011185018 -0.038037743 0.046478104 0.07247398 -0.04108467
0.024144711 0.0800551 0.047014236 -0.024237402 -0.020525066 0.036222085 0.0528028 -0.0236391
0.02729691 -0.012874197 0.087842494 0.045911603 -0.02991752 0.052161474 -0.013561734 -0.023129025
00000000: 4853 bc3b 5013 573d c927 f8bc fcfb 2c3b
00000010: 8aa3 1f3c 7fed b73b b88e 403d 1496 b2bc
00000020: 8da2 343d bd87 41bd dfa2 023d 6012 96bc
00000030: 2421 6abd 7b50 a03c 843b 0abc 5c7d 93bd
00000040: 4914 26bd 6cf2 59bd ee39 543d 0965 7ebd
00000050: f3c5 293d ab53 ebbb 9558 243d e84e 773c
00000060: 97c0 c8bc c807 04bd 61b6 24bd ab05 cabc
00000070: 9b90 70bc f5e7 29bd dd83 42bd 8a29 de3c
00000080: 8132 4b3d 5c3c dbbc 4e81 bdbb 2aa6 d2bb
00000090: be3e 5b3c 4752 81bd a5e6 b63c d26d 803c
000000a0: b4a7 a0ba a961 583d 833c a8bc 5e41 373c
000000b0: 77cd 1bbd d35f 3e3d 3d6d 943d 6648 28bd
000000c0: 21cb c53c eef3 a33d 0092 403d 848d c6bc
000000d0: 2f24 a8bc 9c5d 143d c047 583d c9a6 c1bc
000000e0: c59d df3c 4cee 52bc c4e6 b33d ce0d 3c3d
000000f0: 9615 f5bc 45a7 553d 0932 5ebc 1579 bdbc

head.1.bias f4 [64]
-0.06685187 0.09240503 -0.09581636 -0.062422737 0.053046323 0.09721727 0.03498548 0.029277543
-0.045738876 0.008078785 0.05049529 0.0023149683 -0.04899431 -0.004404943 -0.032428164 0.025065254
-0.00095908757 -0.022003952 0.037857193 -0.048707955 -0.08421614 -0.01844639 0.050390918 0.012263505
0.00474878 -0.07177419 -0.019095093 -0.057845194 -0.004841261 -0.036168642 0.00976746 0.010922894
-0.035690393 -0.07298444 -0.033851475 -0.0067909714 -0.089358285 -0.07460225 0.057538573 -0.08745142
0.04285733 0.07301705 -0.04952889 -0.076639846 0.024957089 0.08871109 -0.0041781883 0.01091202
0.07184363 0.021916172 -0.043783132 -0.074098594 0.04699928 0.0523029 -0.010016557 -0.048771247
0.042965773 0.025482194 -0.019892069 0.0407121 0.08031614 0.029820517 -0.023022627 0.06947953
00000000: a2e9 88bd d93e bd3d 5e3b c4bd fcae 7fbd
00000010: 1a47 593d d919 c73d ef4c 0f3d 75d7 ef3c
00000020: b058 3bbd e15c 043c 26d4 4e3d b9b6 173b
00000030: 42ae 48bd 5757 90bb 65d3 04bd a655 cd3c
00000040: 476b 7bba a241 b4bc 2510 1b3d fe81 47bd
00000050: 8379 acbd e21c 97bc b566 4e3d deec 483c
00000060: a79b 9b3b 59fe 92bd 506d 9cbc 15ef 6cbd
00000070: 71a3 9ebb 9225 14bd b207 203c f0f5 323c
00000080: 1730 12bd de78 95bd d8a7 0abd cc86 debb
00000090: 7a01 b7bd 10c9 98bd 91ad 6b3d bb19 b3bd
000000a0: 2b8b 2f3d f789 953d cede 4abd 5af5 9cbd
000000b0: cf72 cc3c 29ae b53d 2fe9 88bb 54c8 323c
000000c0: c122 933d 8b89 b33c f155 33bd 01c1 97bd
000000d0: 5182 403d 913b 563d 7c1c 24bc 5cc4 47bd
000000e0: e1fc 2f3d 09c0 d03c b1f4 a2bc bbc1 263d
000000f0: ca7c a43d 284a f43c f399 bcbc 494b 8e3d

head.3.bias f4 [3]
0.017589655 0.02153944 -0.11718978
00000000: 2e18 903c 7b73 b03c 3201 f0bd
